breakout-v0-1e.pth (torch_old, 683602 bytes, 6 tensors)

conv1.weight f4 [32, 4, 3, 3]
0	0xbdc70d88	-0.09719378
1	0xbd893a80	-0.06700611
2	0xbd890208	-0.066898406
3	0x39e4a000	0.00043606758
4	0xbe001267	-0.1250702
5	0x3d9e890e	0.07740985
6	0xbdd9ef58	-0.10641354
7	0xbe2155f6	-0.15755448
8	0xbe24b5cf	-0.1608498
9	0x3b354bc0	0.0027663559
10	0xbdfe9b4b	-0.124319635
11	0xbe0d99e8	-0.13828242
12	0xbcfa1a18	-0.03053002
13	0x3cb414e8	0.021982625
14	0x3dc26d92	0.09493555
15	0xbe13ddce	-0.1444008
16	0x3cf39068	0.029731944
17	0xbcf57e88	-0.029967561
18	0xbdd67a48	-0.10472542
19	0xbd3cd896	-0.04610499
20	0xbdc8ef88	-0.09811312
21	0xbdf88e33	-0.12136497
22	0xbd945e9e	-0.07244609
23	0xbd2fd836	-0.042930804
24	0x3dd90792	0.10597147
25	0x3c71d680	0.014760613
26	0x3c171d70	0.009223327
27	0x3e27a139	0.16370095
28	0x3d92fe5e	0.07177423
29	0x3e23eff9	0.16009511
30	0xbda7a526	-0.081857964
31	0x3e0ab0a7	0.1354395
32	0x3d5c8004	0.053833023
33	0x3d3fc3dc	0.046817645
34	0x3e15bf01	0.14623643
35	0xbe019d4a	-0.12657657
36	0xbd951a86	-0.072804496
37	0xbdf9ab1e	-0.12190841
38	0xbd197ff4	-0.03747554
39	0xbd601d10	-0.054715216
40	0x3e258a57	0.16166054
41	0xbddf3e73	-0.10900583
42	0x3d8738ca	0.066026285
43	0x3df85a06	0.121265456
44	0xbd8b37c3	-0.06797745
45	0xbcf3dc20	-0.02976805
46	0xbe20d337	-0.15705572
47	0x3e03ae55	0.12859471
48	0xbe2844d7	-0.1643251
49	0xbccb6aa8	-0.024831131
50	0x3e264961	0.1623893
51	0xbd382b66	-0.044963263
52	0x3e1bf5dd	0.15230508
53	0xbe099ae7	-0.13437997
54	0x3e234bd5	0.15946896
55	0x3d8be460	0.068306684
56	0x3e03dd69	0.1287743
57	0xbdd07b60	-0.10179782
58	0xbc8ce138	-0.017197236
59	0x3da9aeda	0.082853034
60	0xbdf53526	-0.11973028
61	0x3d9fa76a	0.077956036
62	0x3e20f415	0.1571811
63	0x3e173111	0.14764811
64	0x3e0f6379	0.1400279
65	0x3d96f910	0.07371724
66	0x3dbc0472	0.091805354
67	0xbd74da3c	-0.059778437
68	0xbd8c76b3	-0.068585776
69	0x3c728350	0.014801815
70	0xbd546a56	-0.051859222
71	0x3d5fe1ec	0.054658815
72	0x3d9253d8	0.07144898
73	0x3d83d968	0.06437951
74	0xbd398abc	-0.045298323
75	0x3d913cb0	0.07091653
76	0xbc3af190	-0.011410132
77	0xbb3105c0	-0.0027011484
78	0xbd0dd760	-0.034629226
79	0xbc857eb8	-0.016295776
80	0x3dc6a472	0.09699334
81	0xbe08367e	-0.13302037
82	0xbcd875a0	-0.026423275
83	0xbdbee96e	-0.09321867
84	0xbe1e5488	-0.15461934
85	0xbd754426	-0.059879445
86	0xbd0593fc	-0.032611832
87	0xbe071720	-0.13192415
88	0x3c4a7e10	0.012359157
89	0xbdb897c8	-0.09013325
90	0xbe13e980	-0.14444542
91	0xbe0f08e6	-0.13968238
92	0x3db1c0fe	0.086793885
93	0xbe23cc72	-0.15995958
94	0xbd97cd63	-0.07412221
95	0x3e28972d	0.16463919
96	0xbddfb5fb	-0.10923382
97	0x3cc47fa0	0.023986638
98	0x3e0dad61	0.1383567
99	0xbdc981e3	-0.09839227
100	0x3cd18080	0.025573969
101	0x3de88c66	0.11354904
102	0xbd1ce1b0	-0.03830117
103	0x3dc85ec2	0.097836986
104	0xbe1dbb6b	-0.15403526
105	0xbcc881f8	-0.024476036
106	0xbcc7fdf8	-0.024413094
107	0x3dc8a9c6	0.09798007
108	0x3dbebcba	0.093133405
109	0x3e123521	0.1427808
110	0xbdcfe8c6	-0.1015182
111	0xbd938a10	-0.07204068
112	0x3e295a2d	0.16538306
113	0xbd2e530c	-0.04255967
114	0x3e22d973	0.15903263
115	0x3dcc4cc2	0.09975578
116	0x3dcff6c2	0.10154487
117	0x3d9cde72	0.076596156
118	0xbc0e2e90	-0.008678094
119	0x3dad7d82	0.08471204
120	0xbdeb248e	-0.11481582
121	0xbd61bd2c	-0.05511205
122	0xbdbe1046	-0.09280448
123	0xbdef8d2b	-0.116968475
124	0xbd8d758e	-0.069071874
125	0xbbeb0060	-0.0071716756
126	0xbe285b7f	-0.16441153
127	0xbe138290	-0.14405274
128	0x3e037fcf	0.12841724
129	0x3e119049	0.14215197
130	0xbe1bf640	-0.15230656
131	0x3da0bfb0	0.078490615
132	0x3c819040	0.015815854
133	0xbd4d99c0	-0.050195456
134	0xbe2715fe	-0.16316983
135	0x3e0ae083	0.13562207
136	0x3e05af37	0.1305512
137	0xbda16b60	-0.07881808
138	0xbdeee4f6	-0.116647646
139	0xbdbef7a8	-0.093245804
140	0x3e143a09	0.14475264
141	0xbe07efbf	-0.1327505
142	0x3c93af00	0.018027782
143	0x3d2ddcec	0.042447016
144	0xbda9c813	-0.08290114
145	0xbdc0d190	-0.09414971
146	0x3dbb1542	0.09134914
147	0x3d3344f4	0.04376693
148	0x3da7141e	0.08158134
149	0x3d1533bc	0.03642629
150	0x3bbcfd80	0.0057675242
151	0xbb1e6fc0	-0.0024175495
152	0x3e1a2619	0.15053596
153	0xbd0d3b5c	-0.034480438
154	0xbda7f6a8	-0.08201343
155	0x3ca65d18	0.020308062
156	0xbd960090	-0.07324326
157	0x3d60eb14	0.054911688
158	0xbe2813e7	-0.16413842
159	0xbc096a10	-0.008387104
160	0x3e1b05e9	0.15138973
161	0xbcf8fdd8	-0.03039448
162	0xbe018047	-0.1264659
163	0x3dd05a42	0.10173465
164	0x3deaac6a	0.114586666
165	0x3dcc09c2	0.09962799
166	0x3b925800	0.004466057
167	0x3d813cf8	0.06310457
168	0x3df8e49a	0.12152977
169	0xbe24b08c	-0.16082972
170	0x3dd662e2	0.10468079
171	0xbd73fc76	-0.059566937
172	0xbd4e94b0	-0.05043477
173	0x3beef4a0	0.007292345
174	0x3ba83580	0.005133331
175	0xbe011e1a	-0.12609139
176	0x3cc31840	0.023815274
177	0xb963b000	-0.00021713972
178	0x3d2b17ac	0.041770622
179	0x3ae0c380	0.0017148107
180	0x3e1ea7df	0.15493725
181	0x3e15b7f9	0.14620961
182	0x3db97d12	0.090570584
183	0x3d04ece4	0.03245248
184	0xbdfe50bb	-0.12417742
185	0x3e1ed433	0.15510635
186	0x3d88fb26	0.06688528
187	0xbe24f84a	-0.1611034
188	0xbe031080	-0.12799263
189	0xbbe69780	-0.007037103
190	0x3d77597c	0.060388073
191	0x3c95b878	0.018276438
192	0xbd1fd624	-0.03902258
193	0xbd908158	-0.0705592
194	0xbdf77c93	-0.120843075
195	0xbe13d1c6	-0.14435491
196	0x3c154b30	0.009112164
197	0x3d1f3d1c	0.038876638
198	0xbcddb938	-0.027065858
199	0xbdd1acfb	-0.102380715
200	0xbc932b80	-0.017965078
201	0x3e113839	0.14181603
202	0x3d870606	0.06592946
203	0x3d011054	0.031509712
204	0x3d5d673c	0.05405353
205	0x3e136ea1	0.1439767
206	0x3d0f83c0	0.035037756
207	0x3e033161	0.12811805
208	0x3d7f129c	0.062273607
209	0xbde7b5ab	-0.11313947
210	0xbd42a386	-0.04751923
211	0xbde7e946	-0.1132379
212	0x3ddc05ca	0.10743292
213	0xbd65b38c	-0.056079432
214	0xbe0d0193	-0.13770132
215	0x3c2b76c0	0.010465324
216	0xbd5be2e6	-0.053683184
217	0xbcc82758	-0.024432823
218	0xbd56613c	-0.052338824
219	0xbd6fbbd0	-0.05852872
220	0xbcce80e0	-0.025207937
221	0x3d99c4fe	0.075082764
222	0xbd5915ac	-0.052999184
223	0xbd1dc330	-0.038516223
224	0x3de4880a	0.1115876
225	0xbd879e00	-0.06621933
226	0x3db1df2a	0.08685143
227	0x3c899e98	0.016799256
228	0xbe123412	-0.14277676
229	0xbde698f3	-0.112596415
230	0xbe185e17	-0.14879642
231	0xbd9050a0	-0.07046628
232	0x3d546e3c	0.05186294
233	0x3d2bf4b4	0.041981414
234	0xbc35c630	-0.011094615
235	0xbd8c5960	-0.068529844
236	0xbde05bab	-0.10954984
237	0x3df574aa	0.119851425
238	0xbdef180b	-0.11674508
239	0x3dd7741e	0.105201945
240	0xbdf09cb0	-0.11748636
241	0xbca14508	-0.019686237
242	0xbd81fcd0	-0.06347048
243	0x3d086bdc	0.033305988
244	0xbdf59f88	-0.11993319
245	0x3dc878b2	0.09788646
246	0x3b55be40	0.0032614619
247	0x3d5dab10	0.054118216
248	0xbd0f8dec	-0.035047457
249	0xbc723730	-0.014783666
250	0x3dc1ee6e	0.09469305
251	0xbd585b30	-0.05282134
252	0x3dbf8e3a	0.093532994
253	0xbe118406	-0.14210519
254	0x3d0ba99c	0.0340973
255	0x3d07237c	0.032992825

conv1.bias f4 [32]
0	0x3e10d7e5	0.14144857
1	0xbe055632	-0.13021162
2	0x3e13ac4b	0.14421193
3	0xbe06cddb	-0.13164465
4	0xbdb144e3	-0.08655717
5	0xbd8d37a0	-0.06895375
6	0x3c80cde0	0.015723169
7	0xbe1cef54	-0.15325671
8	0x3d4ce894	0.05002649
9	0xbc9a92c8	-0.018868819
10	0xbcd0f3a0	-0.025506794
11	0xbd369310	-0.044573843
12	0xbdafa650	-0.085766435
13	0x3db8af4e	0.09017812
14	0x3ddd15b6	0.10795157
15	0xbc827958	-0.015927002
16	0xbc3aa440	-0.011391699
17	0xbd8e3f53	-0.06945672
18	0x3db95a42	0.090504184
19	0xbcbdb8e0	-0.023159444
20	0xbe1827e2	-0.14858964
21	0xbdc3e420	-0.09564996
22	0xbcb4a2e8	-0.022050336
23	0x3e0cedb5	0.13762553
24	0xbdf80460	-0.121102095
25	0x3e0ed407	0.1394807
26	0x3db287e2	0.08717324
27	0x3dc963aa	0.098334625
28	0x3da1dd70	0.07903564
29	0xbbbf25e0	-0.0058333725
30	0x3d8d47c2	0.06898452
31	0xbd0fb20c	-0.035081908

fc1.weight f4 [24, 7056]
0	0x3c32888f	0.010896816
1	0xbc166330	-0.009178922
2	0x3b44c3c8	0.0030023921
3	0x3b18a1ec	0.0023289872
4	0x3bbac802	0.0057001123
5	0xbbcda796	-0.0062760813
6	0x3af373d8	0.0018573953
7	0x3c27771b	0.010221268
8	0xbc045e9c	-0.008079197
9	0xbbcf50dc	-0.006326778
10	0xbc01c8c3	-0.0079214005
11	0x3bbf080a	0.0058298158
12	0xbc415dc5	-0.011802142
13	0xbb9a216e	-0.004703692
14	0xbb9f3931	-0.0048591127
15	0x3bdcde1a	0.0067403438
16	0xbc139f85	-0.0090102
17	0x3bb66306	0.0055660037
18	0xbc385fb1	-0.011253283
19	0x3c0b00f7	0.008484117
20	0xb9ecef40	-0.00045191683
21	0xbbfbbb13	-0.007682213
22	0x3abf7918	0.0014608232
23	0x3c341529	0.010991373
24	0x3b7c5944	0.0038505355
25	0x3bc46842	0.005993874
26	0xbbd70a2b	-0.0065624914
27	0xbc14ecdf	-0.009089678
28	0xbc191634	-0.009343673
29	0xbbef4e86	-0.007303062
30	0x3bcd836e	0.006271771
31	0x3bacca42	0.0052731344
32	0x3b8261e6	0.0039789556
33	0x3bae02a6	0.0053103743
34	0xbbddfbe8	-0.0067744143
35	0x3c2c5773	0.010518896
36	0x3bd1fc4e	0.006408251
37	0x3b3e7f8c	0.0029067723
38	0xbc413385	-0.011792068
39	0x3acf4d48	0.0015815878
40	0x3ba116e2	0.004916058
41	0x3bd1f436	0.006407286
42	0x3abd8cf8	0.0014461568
43	0xbc1b233a	-0.009468848
44	0x3c151f17	0.009101651
45	0x3be6a276	0.00703841
46	0x3b5c5580	0.0033620298
47	0xba9843a8	-0.0011616843
48	0xbb9118bd	-0.004427998
49	0xbb52b114	-0.0032149004
50	0xbac58f88	-0.0015072683
51	0xbbec333a	-0.007208255
52	0xbacd3758	-0.0015656753
53	0xbb1b0ddc	-0.0023659384
54	0xbb9176d9	-0.0044392166
55	0xbbc851e2	-0.006113277
56	0x3a07c380	0.0005178973
57	0x3a3fad70	0.0007311916
58	0xba414290	-0.00073722843
59	0x3a99f3f0	0.0011745673
60	0xbb9f9674	-0.0048702303
61	0x3c09b50d	0.008404982
62	0x3af651a0	0.0018792637
63	0x3b491bd0	0.0030686744
64	0xbc0a56f6	-0.008443585
65	0x3b8327a6	0.004002529
66	0xbb3b73e8	-0.002860302
67	0xba5b1090	-0.0008356655
68	0x3c34b6f5	0.0110299485
69	0x3c38b8af	0.011274501
70	0x3c163d03	0.00916982
71	0x3bdde052	0.006771126
72	0xb8fe1a80	-0.000121166
73	0xbbf79637	-0.007555749
74	0xbc27d863	-0.010244462
75	0xbc0e8323	-0.008698258
76	0xbbaeb0fa	-0.005331156
77	0xbc40e5a2	-0.011773499
78	0x3c222619	0.0098967785
79	0xbba044c6	-0.004891011
80	0x3b39d4f4	0.002835569
81	0x3bdda9d2	0.006764629
82	0xbb33cc8c	-0.0027435152
83	0xbbba1a93	-0.0056794374
84	0x38a1a100	7.707067e-05
85	0xbb6e9d38	-0.0036409628
86	0xbb31cb8c	-0.002712938
87	0x3be37422	0.0069413343
88	0x3be6e702	0.0070465812
89	0xbb1fab74	-0.0024363669
90	0xbbb84989	-0.0056240004
91	0x3be1ea0a	0.0068943547
92	0x3b4ee480	0.0031569302
93	0x3a1d8750	0.0006009238
94	0xbc15bc8e	-0.009139193
95	0xbc2897e9	-0.010290124
96	0x38b38e80	8.561928e-05
97	0x3b847f0e	0.0040434664
98	0x3c2340eb	0.009964208
99	0x3b41cb7c	0.002957075
100	0xbc196b74	-0.009363998
101	0x3b4b3200	0.0031005144
102	0x3b28d820	0.0025763586
103	0x3c2ca4eb	0.010537366
104	0x3a5ed4f0	0.0008500358
105	0x3b3c7e2c	0.0028761728
106	0x3aeac3a0	0.0017911084
107	0x3ba8a4b6	0.005146588
108	0x3c023ba3	0.007948789
109	0x3be927ba	0.0071153315
110	0xba2245b0	-0.0006190194
111	0xbbae9bfa	-0.0053286524
112	0xbb0804d0	-0.0020754822
113	0x3c246587	0.010033972
114	0x3a805348	0.0009790445
115	0x3a36e510	0.0006976882
116	0xbaa71870	-0.0012748372
117	0x3a164e50	0.00057337154
118	0xbc104306	-0.008805042
119	0xbbd3fe19	-0.0064695
120	0x3bb2ecd2	0.00546036
121	0xbbb2fe49	-0.005462442
122	0xb991bcc0	-0.00027797185
123	0x3c1a9721	0.009435446
124	0x3bf18376	0.0073704077
125	0xbb6201c4	-0.0034485916
126	0x3b96ab8a	0.004598086
127	0x3c0abe53	0.008468228
128	0xbbf8c749	-0.007592116
129	0xbb321720	-0.0027174428
130	0x3be7ebba	0.0070776613
131	0xbc05481a	-0.008134866
132	0x3bf21352	0.007387557
133	0x3a92fb60	0.0011213832
134	0x3b90a82e	0.00441458
135	0x3b02ee20	0.001997836
136	0xbb941bfd	-0.004519938
137	0xbc3d775f	-0.011564105
138	0xbc391cf7	-0.01129841
139	0xbb2b1f88	-0.0026111323
140	0xbc2be3e3	-0.010491344
141	0xbc0de196	-0.008659741
142	0xbbab44ae	-0.005226693
143	0x3b54058c	0.003235194
144	0xbac8f2f8	-0.0015331199
145	0x3be830a6	0.0070858775
146	0xb8057b00	-3.1824224e-05
147	0xbc06e1bc	-0.00823253
148	0xbc049705	-0.0080926465
149	0x3c23e06d	0.010002238
150	0xbc1c18a3	-0.009527358
151	0xbb95e1fa	-0.0045740576
152	0xbb4b2060	-0.0030994639
153	0x3c34db0d	0.011038554
154	0x3c01179d	0.007879165
155	0x3c3c42a9	0.011490502
156	0x3adeba60	0.00169928
157	0xbc302d10	-0.010752931
158	0x3be23ee6	0.0069044707
159	0x3b977016	0.004621516
160	0xbbff4bc6	-0.0077910153
161	0xbbdf99b4	-0.0068237428
162	0xbb81bfaa	-0.0039596157
163	0xbc36ec03	-0.011164668
164	0xbbce17c3	-0.0062894537
165	0xbc3722d7	-0.01117774
166	0xbb2ecc5c	-0.00266721
167	0x3c0c2493	0.008553642
168	0xbbb049f4	-0.0053799096
169	0x3c0a0613	0.0084243
170	0x3c0178ab	0.007902305
171	0x3c302be3	0.010752651
172	0xbc3a01ec	-0.011352997
173	0x3c1eec13	0.009699839
174	0xbb9fa068	-0.004871417
175	0x3c27d5c7	0.01024384
176	0xb90eec80	-0.00013630278
177	0xbbf43716	-0.007452856
178	0x3ba0140e	0.004885203
179	0xbbdd0509	-0.006744985
180	0x3b9821e6	0.004642713
181	0x3c36cb77	0.011156908
182	0x3b5d1cd0	0.0033739097
183	0x3befa92e	0.007313869
184	0x3c07d841	0.008291305
185	0xbc092823	-0.008371386
186	0xbbfc3031	-0.0076961746
187	0xbc282f72	-0.010265218
188	0xbc216656	-0.009851059
189	0x3b9bfcb6	0.00476035
190	0xbb3aabc4	-0.0028483728
191	0x3b952ba2	0.0045523206
192	0xbbb9d0c6	-0.0056706397
193	0x3c2bb5a1	0.010480315
194	0x3b92b336	0.00447693
195	0x3bb1165a	0.005404276
196	0x3c0a8f3b	0.008457
197	0xbc0e66e0	-0.0086915195
198	0xbc2c853f	-0.010529815
199	0x39bc8f60	0.00035964977
200	0x3b449d0c	0.0030000834
201	0x3aa057c0	0.0012233183
202	0xbc22503a	-0.009906823
203	0xbc354dac	-0.011065882
204	0x3b837376	0.0040115668
205	0x3bb27aba	0.005446759
206	0x3c0b11d7	0.00848814
207	0x3bf17a26	0.0073692976
208	0xbb446d24	-0.002997228
209	0xbacaf948	-0.0015485669
210	0x3bc47a1a	0.005996001
211	0x39c31ee0	0.00037216302
212	0x3c1143f1	0.008866296
213	0x3b7a8744	0.0038227597
214	0xbb285250	-0.0025683828
215	0xbbde4196	-0.006782721
216	0xbbd53616	-0.0065066917
217	0x3b9d19c2	0.0047943303
218	0x3b590688	0.0033115465
219	0xbb831e40	-0.004001409
220	0xbb537dc4	-0.0032271007
221	0xbb3c9344	-0.00287743
222	0xba6cacf0	-0.0009028455
223	0xbbebefc6	-0.007200214
224	0x3bca3dce	0.0061719185
225	0xbc24b83a	-0.010053689
226	0x3c05cf05	0.008167033
227	0x39df17a0	0.00042551477
228	0xbc3ed0e2	-0.011646481
229	0x3b20b9e8	0.0024524871
230	0x3c21d737	0.009877971
231	0x3c41cf6b	0.011829237
232	0x3c28c869	0.010301688
233	0xba4205b0	-0.000740136
234	0xbc125d00	-0.008933306
235	0xbbd6fbfd	-0.006560801
236	0x3a891188	0.0010457495
237	0x3bf2b3ce	0.0074066883
238	0xbafb3918	-0.0019166796
239	0x3bab54aa	0.0052285986
240	0xbc10813d	-0.008819875
241	0xbc31217c	-0.010811206
242	0x3b9be1d2	0.0047571445
243	0x3bdd8262	0.0067599276
244	0x3bba8bbe	0.005692928
245	0xbb880fc0	-0.004152268
246	0xba967248	-0.001147815
247	0x3b9f3742	0.004858882
248	0xbc2c7eff	-0.010528325
249	0xbbddefd9	-0.006772977
250	0xbc392a1f	-0.011301546
251	0xbc0afde6	-0.008483386
252	0xbb1db1d0	-0.0024062283
253	0x3b6e3d68	0.003635252
254	0xbbf67e62	-0.00752239
255	0xbc11a392	-0.008889096

fc1.bias f4 [24]
0	0xb94c4dc0	-0.0001948392
1	0xbc1a1357	-0.009404025
2	0xbb7599ad	-0.003747563
3	0xb927497a	-0.00015953733
4	0x3f744cdf	0.95429796
5	0xbb99551c	-0.0046793353
6	0xba759b4e	-0.00093691505
7	0xb9f609b9	-0.0004692802
8	0xb94219ee	-0.00018510941
9	0xbc3b4cc6	-0.011431878
10	0xbcda4584	-0.026644476
11	0x3f5ba621	0.8580037
12	0xbc5b92ee	-0.01340173
13	0xb9d99aa0	-0.0004150467
14	0xbce1d319	-0.02756648
15	0xbb2bf4a0	-0.0026238337
16	0xbc62034a	-0.0137947295
17	0xbc336902	-0.010950329
18	0xbb510167	-0.0031891705
19	0xbbe4579b	-0.006968451
20	0xbc3bb0aa	-0.011455694
21	0xbbc84787	-0.0061120423
22	0xbb957f67	-0.0045623067
23	0xbaf44b23	-0.0018638115

out.weight f4 [4, 24]
0	0xbe1c4bcc	-0.15263289
1	0x3e10619c	0.14099735
2	0x3da0daa4	0.078542024
3	0xbe048445	-0.12941082
4	0xbf02f9f9	-0.5116268
5	0x3c4eaaa8	0.01261393
6	0xbe28ddc9	-0.16490854
7	0xbdb50bc2	-0.08840133
8	0x3e461edb	0.19347708
9	0x3e16f5b0	0.1474216
10	0x3e3c3f0e	0.18383428
11	0xbf05923b	-0.52176255
12	0xbcedc6f0	-0.029025525
13	0x3e4078bc	0.18796057
14	0xbcb21856	-0.02174012
15	0xbe247f62	-0.16064218
16	0x3d89844c	0.06714687
17	0x3e06706d	0.13128825
18	0xbe16ee28	-0.14739287
19	0xbd790ff1	-0.06080622
20	0xbe221975	-0.15830024
21	0x3c431244	0.01190621
22	0x3e1c03f6	0.15235886
23	0x3cde88aa	0.027164776
24	0xbc01ce00	-0.007922649
25	0xbd9be90c	-0.076128095
26	0xbd9d6f8b	-0.07687291
27	0x3d13694c	0.03598909
28	0xbeedec56	-0.46469373
29	0xbd72ab17	-0.059245195
30	0xbe9a5af3	-0.30147514
31	0x3e1b48a1	0.15164424
32	0xbdeb278d	-0.11482153
33	0x3e129516	0.14314684
34	0x3e2b113a	0.1670579
35	0xbef9a259	-0.48756674
36	0x3d9b302c	0.075775474
37	0xbe30f9cd	-0.17282791
38	0xbe386962	-0.1800895
39	0x3e0b9fb8	0.13635147
40	0xbe0b1654	-0.13582736
41	0xbd110205	-0.035402317
42	0x3d6fea3e	0.058573
43	0xbd1481c6	-0.036256574
44	0x3d751e47	0.059843328
45	0xbdc72292	-0.09723391
46	0xbd9f56fe	-0.07780264
47	0x3e093be4	0.13401753
48	0x3d87dfa8	0.06634456
49	0x3e34b1f6	0.17646012
50	0xbdbcb522	-0.09214236
51	0x3e230062	0.15918115
52	0xbeff6380	-0.498806
53	0xbdc669d5	-0.096881546
54	0x3d83a9f8	0.06428903
55	0x3cb9588a	0.022625227
56	0x3e0a6b88	0.13517582
57	0x3d5f62e0	0.054537654
58	0x3d9c15b0	0.07621324
59	0xbf01d20f	-0.5071115
60	0xbdccde8b	-0.10003384
61	0xbc196910	-0.009363428
62	0x3d3880d3	0.04504473
63	0xbcc15998	-0.023602292
64	0x3ce27eb2	0.027648304
65	0xbe341077	-0.17584406
66	0xbdc87ad6	-0.09789054
67	0x3e337a8e	0.1752722
68	0xbe2a36a4	-0.16622406
69	0xbb572d6c	-0.003283347
70	0x3b0813d2	0.0020763767
71	0xbd78f131	-0.060776893
72	0x3d9d82e4	0.07690981
73	0xbdcf8877	-0.101334505
74	0xbdd1dbe6	-0.102470204
75	0x3a6086c0	0.0008565001
76	0xbf011f53	-0.5043842
77	0xbd7e2ce7	-0.06205454
78	0x3d99fb2a	0.07518609
79	0x3e20c9f5	0.1570204
80	0x3e35a658	0.17739236
81	0x3cbef220	0.023308814
82	0xbd7b0d93	-0.061292242
83	0xbf0c3148	-0.547627
84	0xbe23db9c	-0.16001743
85	0xbdaa4c8b	-0.08315381
86	0x3e2754d7	0.16340958
87	0x3d7c9b28	0.061671406
88	0x3d569561	0.052388553
89	0x3ca0a14b	0.01960816
90	0x3db0c5fc	0.086315125
91	0xbd1df5f7	-0.03856465
92	0xbe43f367	-0.1913582
93	0xbbb575dd	-0.005537732
94	0x3a1eef85	0.0006062913
95	0xbe0e85ee	-0.13918278

out.bias f4 [4]
0	0x3f876ac5	1.0579458
1	0x3f80a990	1.0051746
2	0x3f86bbb2	1.052603
3	0x3f866662	1.0499995
